…
    "train_dir = data_dir + '/train'\n",
    "valid_dir = data_dir + '/valid'\n",
    "test_dir = data_dir + '/test'"
   ]
  },
  {
   "cell_type": "code",
   "execution_count": 3,
   "metadata": {},
   "outputs": [
    {
     "name": "stderr",
     "output_type": "stream",
     "text": [
      "Downloading: \"https://download.pytorch.org/models/vgg16-397923af.pth\" to /root/.torch/models/vgg16-397923af.pth\n",
      "100%|██████████| 553433881/553433881 [00:08<00:00, 62065425.52it/s]\n"
     ]
    },
    {
     "data": {
      "text/plain": [
       "VGG(\n",
       "  (features): Sequential(\n",
       "    (0): Conv2d(3, 64, kernel_size=(3, 3), stride=(1, 1), padding=(1, 1))\n",
       "    (1): ReLU(inplace)\n",
       "    (2): Conv2d(64, 64, kernel_size=(3, 3), stride=(1, 1), padding=(1, 1))\n",
       "    (3): ReLU(inplace)\n",
       "    (4): MaxPool2d(kernel_size=2, stride=2, padding=0, dilation=1, ceil_mode=False)\n",
       "    (5): Conv2d(64, 128, kernel_size=(3, 3), stride=(1, 1), padding=(1, 1))\n",
       "    (6): ReLU(inplace)\n",
       "    (7): Conv2d(128, 128, kernel_size=(3, 3), stride=(1, 1), padding=(1, 1))\n",
       "    (8): ReLU(inplace)\n",
       "    (9): MaxPool2d(kernel_size=2, stride=2, padding=0, dilation=1, ceil_mode=False)\n",
       "    (10): Conv2d(128, 256, kernel_size=(3, 3), stride=(1, 1), padding=(1, 1))\n",
       "    (11): ReLU(inplace)\n",
       "    (12): Conv2d(256, 256, kernel_size=(3, 3), stride=(1, 1), padding=(1, 1))\n",
       "    (13): ReLU(inplace)\n",
       "    (14): Conv2d(256, 256, kernel_size=(3, 3), stride=(1, 1), padding=(1, 1))\n",
       "    (15): ReLU(inplace)\n",
       "    (16): MaxPool2d(kernel_size=2, stride=2, padding=0, dilation=1, ceil_mode=False)\n",
       "    (17): Conv2d(256, 512, kernel_size=(3, 3), stride=(1, 1), padding=(1, 1))\n",
       "    (18): ReLU(inplace)\n",
       "    (19): Conv2d(512, 512, kernel_size=(3, 3), stride=(1, 1), padding=(1, 1))\n",
       "    (20): ReLU(inplace)\n",
       "    (21): Conv2d(512, 512, kernel_size=(3, 3), stride=(1, 1), padding=(1, 1))\n",
       "    (22): ReLU(inplace)\n",
       "    (23): MaxPool2d(kernel_size=2, stride=2, padding=0, dilation=1, ceil_mode=False)\n",
       "    (24): Conv2d(512, 512, kernel_size=(3, 3), stride=(1, 1), padding=(1, 1))\n",
       "    (25): ReLU(inplace)\n",
       "    (26): Conv2d(512, 512, kernel_size=(3, 3), stride=(1, 1), padding=(1, 1))\n",
       "    (27): ReLU(inplace)\n",
       "    (28): Conv2d(512, 512, kernel_size=(3, 3), stride=(1, 1), padding=(1, 1))\n",
       "    (29): ReLU(inplace)\n",
       "    (30): MaxPool2d(kernel_size=2, stride=2, padding=0, dilation=1, ceil_mode=False)\n",
       "  )\n",
       "  (classifier): Sequential(\n",
       "    (0): Linear(in_features=25088, out_features=4096, bias=True)\n",
       "    (1): ReLU(inplace)\n",
       "    (2): Dropout(p=0.5)\n",
       "    (3): Linear(in_features=4096, out_features=4096, bias=True)\n",
       "    (4): ReLU(inplace)\n",
       "    (5): Dropout(p=0.5)\n",
       "    (6): Linear(in_features=4096, out_features=1000, bias=True)\n",
       "  )\n",
       ")"
      ]
     },
     "execution_count": 3,
     "metadata": {},
     "output_type": "execute_result"
    }
   ],
   "source": [
    "# TODO: Define your transforms for the training, validation, and testing sets\n",
    "#data_transforms = \n",
    "\n",
    "##.........Define transforms for the training data validation data, and testing data\n",
…
    "                      hyperparameters (learning rate, units in the classifier, epochs, etc) to find the best model. \n",
    "                      Save those hyperparameters to use as default values in the next part of the project."
   ]
  },
  {
   "cell_type": "code",
   "execution_count": null,
   "metadata": {},
   "outputs": [],
   "source": [
    "\n"
   ]
  },
  {
   "cell_type": "code",
   "execution_count": 7,
   "metadata": {},
   "outputs": [
    {
     "name": "stdout",
     "output_type": "stream",
     "text": [
      "VGG(\n",
      "  (features): Sequential(\n",
      "    (0): Conv2d(3, 64, kernel_size=(3, 3), stride=(1, 1), padding=(1, 1))\n",
      "    (1): ReLU(inplace)\n",
      "    (2): Conv2d(64, 64, kernel_size=(3, 3), stride=(1, 1), padding=(1, 1))\n",
      "    (3): ReLU(inplace)\n",
      "    (4): MaxPool2d(kernel_size=2, stride=2, padding=0, dilation=1, ceil_mode=False)\n",
      "    (5): Conv2d(64, 128, kernel_size=(3, 3), stride=(1, 1), padding=(1, 1))\n",
      "    (6): ReLU(inplace)\n",
      "    (7): Conv2d(128, 128, kernel_size=(3, 3), stride=(1, 1), padding=(1, 1))\n",
      "    (8): ReLU(inplace)\n",
      "    (9): MaxPool2d(kernel_size=2, stride=2, padding=0, dilation=1, ceil_mode=False)\n",
      "    (10): Conv2d(128, 256, kernel_size=(3, 3), stride=(1, 1), padding=(1, 1))\n",
      "    (11): ReLU(inplace)\n",
      "    (12): Conv2d(256, 256, kernel_size=(3, 3), stride=(1, 1), padding=(1, 1))\n",
      "    (13): ReLU(inplace)\n",
      "    (14): Conv2d(256, 256, kernel_size=(3, 3), stride=(1, 1), padding=(1, 1))\n",
      "    (15): ReLU(inplace)\n",
      "    (16): MaxPool2d(kernel_size=2, stride=2, padding=0, dilation=1, ceil_mode=False)\n",
      "    (17): Conv2d(256, 512, kernel_size=(3, 3), stride=(1, 1), padding=(1, 1))\n",
      "    (18): ReLU(inplace)\n",
      "    (19): Conv2d(512, 512, kernel_size=(3, 3), stride=(1, 1), padding=(1, 1))\n",
      "    (20): ReLU(inplace)\n",
      "    (21): Conv2d(512, 512, kernel_size=(3, 3), stride=(1, 1), padding=(1, 1))\n",
      "    (22): ReLU(inplace)\n",
      "    (23): MaxPool2d(kernel_size=2, stride=2, padding=0, dilation=1, ceil_mode=False)\n",
      "    (24): Conv2d(512, 512, kernel_size=(3, 3), stride=(1, 1), padding=(1, 1))\n",
      "    (25): ReLU(inplace)\n",
      "    (26): Conv2d(512, 512, kernel_size=(3, 3), stride=(1, 1), padding=(1, 1))\n",
      "    (27): ReLU(inplace)\n",
      "    (28): Conv2d(512, 512, kernel_size=(3, 3), stride=(1, 1), padding=(1, 1))\n",
      "    (29): ReLU(inplace)\n",
      "    (30): MaxPool2d(kernel_size=2, stride=2, padding=0, dilation=1, ceil_mode=False)\n",
      "  )\n",
      "  (classifier): Sequential(\n",
      "    (fc1): Linear(in_features=25088, out_features=4096, bias=True)\n",
      "    (relu1): ReLU()\n",
      "    (dropout1): Dropout(p=0.25)\n",
      "    (fc2): Linear(in_features=4096, out_features=1000, bias=True)\n",
      "    (relu2): ReLU()\n",
      "    (dropout2): Dropout(p=0.25)\n",
      "    (fc3): Linear(in_features=1000, out_features=102, bias=True)\n",
      "    (output): LogSoftmax()\n",
      "  )\n",
      ")\n"
     ]
    }
   ],
   "source": [
    "## Build and train the classifier.\n",
    "#* Define a new, untrained feed-forward network as a classifier, using ReLU activations and dropout\n",
    "## Lesson ref: inferences/7, build network/8, training/6 \n",
    "\n",
    "## Including nn.Dropout, log-softmax -- use torch.exp at output\n",
…
   "cell_type": "markdown",
   "metadata": {},
   "source": [
    "## Loading the checkpoint\n",
    "\n",
    "At this point it's good to write a function that can load a checkpoint and rebuild the model. That way you can come back to this project and keep working on it without having to retrain the network."
   ]
  },
  {
   "cell_type": "code",
   "execution_count": 10,
   "metadata": {},
   "outputs": [
    {
     "name": "stdout",
     "output_type": "stream",
     "text": [
      "Start checkpoint load.\n",
      "Loaded a checkpoint:  arch{'arch': VGG(\n",
      "  (features): Sequential(\n",
      "    (0): Conv2d(3, 64, kernel_size=(3, 3), stride=(1, 1), padding=(1, 1))\n",
      "    (1): ReLU(inplace)\n",
      "    (2): Conv2d(64, 64, kernel_size=(3, 3), stride=(1, 1), padding=(1, 1))\n",
      "    (3): ReLU(inplace)\n",
      "    (4): MaxPool2d(kernel_size=2, stride=2, padding=0, dilation=1, ceil_mode=False)\n",
      "    (5): Conv2d(64, 128, kernel_size=(3, 3), stride=(1, 1), padding=(1, 1))\n",
      "    (6): ReLU(inplace)\n",
      "    (7): Conv2d(128, 128, kernel_size=(3, 3), stride=(1, 1), padding=(1, 1))\n",
      "    (8): ReLU(inplace)\n",
      "    (9): MaxPool2d(kernel_size=2, stride=2, padding=0, dilation=1, ceil_mode=False)\n",
      "    (10): Conv2d(128, 256, kernel_size=(3, 3), stride=(1, 1), padding=(1, 1))\n",
      "    (11): ReLU(inplace)\n",
      "    (12): Conv2d(256, 256, kernel_size=(3, 3), stride=(1, 1), padding=(1, 1))\n",
      "    (13): ReLU(inplace)\n",
      "    (14): Conv2d(256, 256, kernel_size=(3, 3), stride=(1, 1), padding=(1, 1))\n",
      "    (15): ReLU(inplace)\n",
      "    (16): MaxPool2d(kernel_size=2, stride=2, padding=0, dilation=1, ceil_mode=False)\n",
      "    (17): Conv2d(256, 512, kernel_size=(3, 3), stride=(1, 1), padding=(1, 1))\n",
      "    (18): ReLU(inplace)\n",
      "    (19): Conv2d(512, 512, kernel_size=(3, 3), stride=(1, 1), padding=(1, 1))\n",
      "    (20): ReLU(inplace)\n",
      "    (21): Conv2d(512, 512, kernel_size=(3, 3), stride=(1, 1), padding=(1, 1))\n",
      "    (22): ReLU(inplace)\n",
      "    (23): MaxPool2d(kernel_size=2, stride=2, padding=0, dilation=1, ceil_mode=False)\n",
      "    (24): Conv2d(512, 512, kernel_size=(3, 3), stride=(1, 1), padding=(1, 1))\n",
      "    (25): ReLU(inplace)\n",
      "    (26): Conv2d(512, 512, kernel_size=(3, 3), stride=(1, 1), padding=(1, 1))\n",
      "    (27): ReLU(inplace)\n",
      "    (28): Conv2d(512, 512, kernel_size=(3, 3), stride=(1, 1), padding=(1, 1))\n",
      "    (29): ReLU(inplace)\n",
      "    (30): MaxPool2d(kernel_size=2, stride=2, padding=0, dilation=1, ceil_mode=False)\n",
      "  )\n",
      "  (classifier): Sequential(\n",
      "    (0): Linear(in_features=25088, out_features=4096, bias=True)\n",
      "    (1): ReLU(inplace)\n",
      "    (2): Dropout(p=0.5)\n",
      "    (3): Linear(in_features=4096, out_features=4096, bias=True)\n",
      "    (4): ReLU(inplace)\n",
      "    (5): Dropout(p=0.5)\n",
      "    (6): Linear(in_features=4096, out_features=1000, bias=True)\n",
      "  )\n",
      "), 'epochs': 3, 'input_size': 25088, 'output_size': 102, 'learn_rate': 0.001, 'dropout': 0.25, 'hidden_layers': 19992, 'classifier': Sequential(\n",
      "  (fc1): Linear(in_features=25088, out_features=4096, bias=True)\n",
      "  (relu1): ReLU()\n",
      "  (dropout1): Dropout(p=0.25)\n",
      "  (fc2): Linear(in_features=4096, out_features=1000, bias=True)\n",
      "  (relu2): ReLU()\n",
      "  (dropout2): Dropout(p=0.25)\n",
      "  (fc3): Linear(in_features=1000, out_features=102, bias=True)\n",
      "  (output): LogSoftmax()\n",
      "), 'state_dict': OrderedDict([('features.0.weight', tensor([[[[-0.5537,  0.1427,  0.5290],\n",
      "          [-0.5831,  0.3566,  0.7657],\n",
      "          [-0.6902, -0.0480,  0.4841]],\n",
      "\n",
      "         [[ 0.1755,  0.0099, -0.0814],\n",
      "          [ 0.0441, -0.0703, -0.2604],\n",
…
